Model: "abd_from_abcd_v0_2_single_input_deploy"
+--------------------------------------------------------------------------+
| Layer (type)        | Output Shape      |    Param # | Connected to      |
|---------------------+-------------------+------------+-------------------|
| abd_flat_input      | (None, 107)       |          0 | -                 |
| (InputLayer)        |                   |            |                   |
|---------------------+-------------------+------------+-------------------|
| A_input_58          | (None, 58)        |          0 | abd_flat_input[0… |
| (FeatureSlice)      |                   |            |                   |
|---------------------+-------------------+------------+-------------------|
| B_input_32          | (None, 32)        |          0 | abd_flat_input[0… |
| (FeatureSlice)      |                   |            |                   |
|---------------------+-------------------+------------+-------------------|
| A_dense_48_relu_fo… | (None, 48)        |      2,832 | A_input_58[0][0]  |
| (Dense)             |                   |            |                   |
|---------------------+-------------------+------------+-------------------|
| B_dense_64_relu_fo… | (None, 64)        |      2,112 | B_input_32[0][0]  |
| (Dense)             |                   |            |                   |
|---------------------+-------------------+------------+-------------------|
| A_dense_24_relu     | (None, 24)        |      1,176 | A_dense_48_relu_… |
| (Dense)             |                   |            |                   |
|---------------------+-------------------+------------+-------------------|
| B_dense_32_relu     | (None, 32)        |      2,080 | B_dense_64_relu_… |
| (Dense)             |                   |            |                   |
|---------------------+-------------------+------------+-------------------|
| Context_input_17    | (None, 17)        |          0 | abd_flat_input[0… |
| (FeatureSlice)      |                   |            |                   |
|---------------------+-------------------+------------+-------------------|
| A_out_ppg_quality   | (None, 3)         |         75 | A_dense_24_relu[… |
| (Dense)             |                   |            |                   |
|---------------------+-------------------+------------+-------------------|
| B_out_ecg_quality   | (None, 3)         |         99 | B_dense_32_relu[… |
| (Dense)             |                   |            |                   |
|---------------------+-------------------+------------+-------------------|
| Context_norm_folded | (None, 17)        |        306 | Context_input_17… |
| (Dense)             |                   |            |                   |
|---------------------+-------------------+------------+-------------------|
| D_SAFE_concat_A_B_… | (None, 23)        |          0 | A_out_ppg_qualit… |
| (Concatenate)       |                   |            | B_out_ecg_qualit… |
|                     |                   |            | Context_norm_fol… |
|---------------------+-------------------+------------+-------------------|
| ABD_SAFE_output     | (None, 3)         |         72 | D_SAFE_concat_A_… |
| (Dense)             |                   |            |                   |
+--------------------------------------------------------------------------+
 Total params: 8,752 (34.19 KB)
 Trainable params: 0 (0.00 B)
 Non-trainable params: 8,752 (34.19 KB)
